cnn_model.tflite (tflite, 22040 bytes, 7 tensors)

dense_1/bias f4 [16]
000000 4f 4a d5 3d 8c cc 18 bc 66 2e aa 3d b9 d8 00 3e
       0.10414564 -0.0093261115 0.08309631 0.12582673
000010 b0 54 d6 bc 00 00 00 00 77 6c a2 bd 16 57 ba bd
       -0.026163429 0.0 -0.07930844 -0.090986416
000020 00 00 00 00 3f 37 e3 bd 00 00 00 00 9e 5d 72 bd
       0.0 -0.11094522 0.0 -0.05917131
000030 1b 01 9c bc f7 df b3 3d 16 57 f9 3d ea 38 01 bd
       -0.019043496 0.08782952 0.121748134 -0.031548418

dense/bias f4 [32]
000000 2a 35 5c bd 43 2e ca 3d f9 2d 98 bd 5f 17 ba bd
       -0.05376164 0.09872105 -0.074306436 -0.09086489
000010 4a a0 c8 3d 3e 4a b9 bd 00 00 00 00 a4 f0 ab bd
       0.09796198 -0.09047364 0.0 -0.08395508
000020 e1 d4 00 3e dc 48 86 bd 00 00 00 00 fd 4d fc 3d
       0.12581207 -0.065568656 0.0 0.123195626
000030 00 00 00 00 4d e0 b8 bd 00 00 00 00 cc 8d db 3d
       0.0 -0.09027157 0.0 0.10720405
000040 f5 1b ed 3d 08 48 ba bd ab 99 eb 3d 00 00 00 00
       0.11577598 -0.0909577 0.11503919 0.0
000050 00 00 00 00 ff 98 f1 bd b8 da b7 3d 59 d2 cc bd
       0.0 -0.1179676 0.08977264 -0.10001058
000060 00 00 00 00 38 bb e5 3d f7 29 3f 3e 00 00 00 00
       0.0 0.1121735 0.18668352 0.0
000070 00 00 00 00 00 03 ca bd 00 00 00 00 32 e3 c4 3d
       0.0 -0.098638535 0.0 0.096136466

conv1d/bias f4 [64]
000000 a5 c5 e0 3d 46 41 f9 3d 00 00 00 00 00 00 00 00
       0.10975198 0.12170653 0.0 0.0
000010 7d 50 e0 3d 00 00 00 00 00 00 00 00 57 23 df 3d
       0.10952852 0.0 0.0 0.108954124
000020 67 ab a5 3d f6 4b a0 3d 00 00 00 00 ab 89 08 3d
       0.08089333 0.078269884 0.0 0.033334415
000030 00 00 00 00 70 3a 66 3d 94 18 a6 3d 0a 03 cd 3d
       0.0 0.056208074 0.08110157 0.10010345
000040 fb e0 07 3e 8d 03 93 3d 00 00 00 00 21 07 e9 3d
       0.13269417 0.07178412 0.0 0.11378313
000050 00 00 00 00 e9 b6 c9 3d 00 00 00 00 57 ce d1 3d
       0.0 0.098493405 0.0 0.10244434
000060 00 00 00 00 3f f4 d6 3d 16 5e f9 3d 3e e2 ef 3c
       0.0 0.10495805 0.121761486 0.029282685
000070 92 7d b8 3d 2d af 45 bd a7 2c f2 3d af 19 d5 3d
       0.09008326 -0.048262764 0.11824923 0.104052894
000080 fd 8f 17 bd 97 14 e2 3d 00 00 00 00 3f 65 d4 3c
       -0.037002552 0.110390835 0.0 0.025927184
000090 00 00 00 00 00 00 00 00 a2 fe 17 bd 4c 44 22 3d
       0.0 0.0 -0.03710807 0.039615914
0000a0 9a fb e1 3d 5f f0 73 3d 00 00 00 00 00 00 00 00
       0.11034317 0.059555408 0.0 0.0
0000b0 f7 2b c4 3d 85 55 b2 3d 00 00 00 00 99 ed 83 bd
       0.09578698 0.08707718 0.0 -0.064418025
0000c0 00 00 00 00 00 00 00 00 00 00 00 00 58 2f 16 3e
       0.0 0.0 0.0 0.14666498
0000d0 00 00 00 00 00 00 00 00 37 96 3c 3d 00 00 00 00
       0.0 0.0 0.046041694 0.0
0000e0 00 00 00 00 00 00 00 00 00 00 00 00 00 00 00 00
       0.0 0.0 0.0 0.0
0000f0 00 00 00 00 7e 19 f4 3d fd 1a 97 3d d8 42 12 3e
       0.0 0.11918925 0.073781945 0.14283311

sequential/dense/MatMul f4 [32, 128]
000000 16 a9 6c be d0 94 78 bd 40 cb 27 3b a0 88 b1 3b
       -0.23111376 -0.060688794 0.0025603324 0.0054178983
000010 9b 93 82 3d 7b 3c 3b be 68 14 82 bc 57 be 8d 3d
       0.0637581 -0.1828479 -0.015878871 0.0692107
000020 a9 6d b3 bd ac 8c 9d 3d d2 cb 1a 3e 06 dc db 3d
       -0.087611504 0.07692847 0.15116814 0.107353255
000030 48 80 d4 3d b1 d7 01 3e d7 6b 6f bd c2 aa 4f be
       0.1037603 0.12679936 -0.058452453 -0.20279983
000040 7b f1 48 be 2e 09 20 3c d4 41 35 3e 19 a3 31 3c
       -0.19623367 0.009767814 0.17700893 0.010842108
000050 ff 8d 3f be fa 7f 71 bd c5 00 40 be c2 e2 f9 bd
       -0.18706511 -0.05895994 -0.18750294 -0.12201454
000060 bf 0c a4 bd 44 79 1d 3e 20 94 68 3d fa 19 15 be
       -0.080102436 0.1537829 0.056781888 -0.1456069
000070 39 d8 96 3d dd ec c9 3d f8 0a 4f be 50 e4 c9 3c
       0.0736546 0.09859631 -0.20219028 0.024645
000080 12 e7 06 bd eb ff 9b 3d bf 5d d4 bd 22 73 9e bd
       -0.03293521 0.07617172 -0.10369443 -0.077368036
000090 72 5f 13 be 36 84 89 bd d7 95 fe bd ed a7 45 3d
       -0.14391878 -0.0671467 -0.124309234 0.04825585
0000a0 a4 7d 73 3d 23 fe 8f 3d 3b 85 e6 bd 8c 7b a6 3d
       0.059445992 0.070308946 -0.112558804 0.081290334
0000b0 f9 bc 0c be 8a 98 b5 bd 40 4c 51 3d ec d3 ce 3d
       -0.13743962 -0.08866985 0.05109811 0.10099015
0000c0 3b de fc bd fe 88 07 3e 9b a5 e3 bd 59 e0 36 3e
       -0.123470746 0.13235852 -0.11115571 0.1785902
0000d0 84 1c 43 3e 2c b4 6d bd fb dc 38 bd 70 24 45 bc
       0.19053847 -0.058033153 -0.04513262 -0.012032613
0000e0 17 ad a5 bd b8 f8 9c bc 00 8d 26 ba db ed 1d be
       -0.08089655 -0.019161567 -0.0006353408 -0.15422766
0000f0 80 37 e5 bd de ce 1d 3e 22 2c 11 3e db 42 2b bd
       -0.111922264 0.15410945 0.14176992 -0.041811805
000100 4e 83 69 bd 8a 75 4f 3e 7c 07 28 3d e4 8b 61 bd
       -0.057009988 0.20259681 0.041022763 -0.05506505
000110 b4 c9 31 3e 81 62 43 be 5c dd cf 3d c6 2b da 3d
       0.173621 -0.19080545 0.10149643 0.1065288
000120 67 f8 c7 3d 54 22 19 3e 4c a2 b1 bd b1 8b af bd
       0.09764176 0.14954501 -0.08673534 -0.08571566
000130 f2 ce dc bd a7 aa 3c 3e 2f 32 a6 bd 30 94 cb 3d
       -0.10781659 0.18424474 -0.081150405 0.09940374
000140 c7 2c 27 3d 4a f4 9c 3d 12 e6 27 3e cf e3 2a bd
       0.040814187 0.07663782 0.16396359 -0.04172116
000150 6a 02 3c 3e ed 97 32 3e 26 d0 24 be 6f 28 4e 3d
       0.18360296 0.17440768 -0.16095027 0.05033153
000160 52 ec 03 3e 14 92 01 3e c3 de 25 be a8 b8 be bc
       0.12883118 0.1265338 -0.16198258 -0.02328141
000170 aa 4b c3 bd 9e 21 33 3e 68 92 b3 3c c4 df b8 ba
       -0.09535916 0.17493293 0.021920398 -0.0014104773
000180 e6 3f 42 3e a6 dc 88 bc 83 7c 1a be f5 d3 27 3e
       0.18969688 -0.016706776 -0.1508656 0.16389449
000190 44 67 2a 3e 26 92 88 bd fd 9f 9a 3d 6c f9 ef bd
       0.16640955 -0.066685006 0.075500466 -0.11717495
0001a0 dc df 17 3e 77 94 54 3d 40 88 49 3d 98 b0 2d 3e
       0.1483149 0.0518994 0.049202204 0.16961896
0001b0 d8 a5 58 3d 89 6f 5d 3e a4 06 b9 3d 6f d6 03 be
       0.052892536 0.21624579 0.0903447 -0.12874769
0001c0 98 35 ad bd 74 70 a5 bd d3 3c 2e be 5a 9b 21 3d
       -0.08457488 -0.08078089 -0.1701539 0.039454795
0001d0 98 40 16 3e ec ea 05 3d 67 6d 8b 3d ec 55 af 3d
       0.14673078 0.032694742 0.06807976 0.0856131
0001e0 5e b9 c3 bd 9a f9 0d 3e 11 5e 44 be f2 c6 89 bd
       -0.0955684 0.13864747 -0.19176508 -0.06727399
0001f0 c0 18 2a 3e cb 0d 35 bb a1 2b fb 3d 11 42 9f bd
       0.16611004 -0.002762663 0.12264181 -0.07776273
000200 ff ca b7 3c bd 22 91 3d 08 99 e8 3d 00 3d b7 3c
       0.022435663 0.07086704 0.113573134 0.022367954
000210 85 dc 77 3d f8 24 3d 3e b0 99 a9 bc d5 92 95 3e
       0.06051304 0.18471134 -0.020703167 0.29213586
000220 77 67 85 3e 0b f9 a4 3d 04 6d fa 3d 5c bc 5b 3e
       0.260555 0.08055314 0.12227824 0.21458572
000230 98 9a db 3c 6f 9e ce bd 8e b6 04 3e 7e 55 51 3e
       0.026807114 -0.100888126 0.12960264 0.20442769
000240 c4 34 8a bd 19 60 c7 bd b0 d2 65 3d b9 15 83 3e
       -0.067483455 -0.09735126 0.05610913 0.2560251
000250 ec e4 44 3e 1d 4c 46 3e 00 32 1f 3d 8f 31 56 3e
       0.19227952 0.19364972 0.038866043 0.20917343
000260 78 40 fb 3c a9 6c c6 bc e5 6e 9d 3d 0b 31 06 3e
       0.03067039 -0.024221735 0.07687167 0.13104646
000270 6e b9 72 3d 45 c4 6b bd e3 75 d4 bc 46 04 e9 3d
       0.05925887 -0.057560224 -0.025935119 0.11377768
000280 bd 9d 4b 3d ce a5 e0 3d 18 f3 03 bd 62 9a 1f 3e
       0.049710978 0.10969125 -0.032214254 0.15586236
000290 a4 97 19 3e 10 ab 04 3e 89 dd 0d be 11 75 73 3d
       0.14999253 0.1295588 -0.1385404 0.059437815
0002a0 a2 2f 5d 3e 44 a4 d7 bd 1c 64 0f 3e e2 b8 3a be
       0.21600202 -0.10529378 0.14003032 -0.1823459
0002b0 61 be 28 3e 1e 31 1f 3d 90 3c e5 3d 85 0e ae be
       0.16478874 0.0388652 0.11193192 -0.33995453
0002c0 56 07 0e 3e 28 a8 78 bd 1d 80 16 be 68 91 86 3e
       0.13869986 -0.06070724 -0.14697309 0.2628281
0002d0 3c da a5 bd ed f4 23 be 5a 3c 58 3e f8 3f 24 bd
       -0.080982655 -0.160114 0.21116772 -0.040100068
0002e0 56 22 27 3e a8 1c 8a bc ac 0a 55 bd 74 ef b8 3d
       0.16321692 -0.016859367 -0.05201213 0.09030047
0002f0 b2 92 ba bd 01 3a ae bc 27 dc 60 3e ad 8f c3 3d
       -0.09110011 -0.021267893 0.21958981 0.09548888
000300 0c 8f 18 bd 0e 42 32 bc e8 3a 65 3d be 98 22 3e
       -0.037245795 -0.0108800065 0.05596438 0.15878579
000310 1e 65 e4 3d 88 d5 aa 3d 38 72 25 be 4f 5c 28 be
       0.11152099 0.08341509 -0.16156852 -0.16441463
000320 bb 7f 77 bd fa 3d 3d 3d 9a a9 19 be 62 18 ce 3b
       -0.060424548 0.046201684 -0.15006104 0.0062895278
000330 40 ba af 3c 8f 2c 24 be 4a ca c0 3d 7a c1 11 be
       0.021451116 -0.16032623 0.094135836 -0.14233962
000340 a8 64 33 bd f0 7a ce bd 2c 46 da 3d 09 8d 9b 3d
       -0.043797165 -0.10082042 0.106579155 0.0759526
000350 74 c5 32 3d 9f 2c 57 be 00 d4 b0 3c dc 95 87 3d
       0.043645337 -0.21013115 0.021585464 0.0662038
000360 e8 f0 f4 3d 6c 63 fd bc a1 5d 8d bd 19 dd c7 bd
       0.11960012 -0.030931197 -0.06902624 -0.09758968
000370 b0 2f c2 3c bc 30 1e be 13 65 fc bd ee 20 66 be
       0.02370438 -0.15448278 -0.12323966 -0.22473499
000380 69 d0 95 bc 29 16 ed bc 47 ba 24 be be 74 c1 bd
       -0.018287854 -0.02894123 -0.16086684 -0.09446095
000390 e0 c5 52 bd 80 28 50 bb 0a 63 e4 bd 52 d2 50 3d
       -0.05145824 -0.003176242 -0.11151703 0.050981827
0003a0 81 a0 de bd 1f ed ff 3d 39 43 a7 bd 72 44 1f 3e
       -0.108704574 0.12496399 -0.081671186 0.15553454
0003b0 3f 17 53 3d f3 3e 15 3d c8 93 56 bd f5 4b ed bd
       0.05153584 0.036436986 -0.05238703 -0.11586753
0003c0 b6 41 3f be 32 fd d5 bd f4 fa dc 3d 17 0c 58 be
       -0.1867741 -0.10448684 0.10790053 -0.21098362
0003d0 58 4d 62 3d 90 a7 6d bc 1f 87 a0 3c f0 d4 a2 3d
       0.055249542 -0.014505282 0.01959568 0.07950771
0003e0 f0 e8 b7 3d 89 af d3 bd 30 7e 28 bc fa fc 40 3e
       0.08979976 -0.10336215 -0.010283992 0.18846503
0003f0 94 4b b4 bd 20 da 84 bc 0b e3 d0 3d 74 52 14 3e
       -0.08803478 -0.016217291 0.10199555 0.14484578

sequential/dense_1/MatMul f4 [16, 32]
000000 4d 70 3c 3e 58 bf d5 3e fb 22 61 be 50 ec 04 bf
       0.18402214 0.41747546 -0.21986 -0.51923084
000010 8c 95 af 3e 9c ce 91 3e 81 ef 9d 3e 54 0a 05 bf
       0.34293783 0.28477943 0.3084679 -0.51968884
000020 8e 36 dd 3e 51 51 62 be 83 9f 0c be bc e1 85 3d
       0.43205684 -0.22101332 -0.13732724 0.06537196
000030 18 c5 08 bd 01 d0 f4 be 9e d4 4a be 9a b7 be 3d
       -0.03339109 -0.47814944 -0.1980767 0.09312363
000040 2a 27 a2 3e 05 62 83 be dc ba 54 bc 5d 71 95 3e
       0.31670505 -0.2566072 -0.012984004 0.29188052
000050 5e 19 1c be 17 38 ff bc 1f 9e 18 3d 28 81 0d bf
       -0.15244052 -0.031154675 0.03726017 -0.552752
000060 be f3 8b be 1a d9 0d 3f b5 28 e7 3f 10 40 32 3d
       -0.27334398 0.55409396 1.8059298 0.043518126
000070 00 a8 74 ba 22 9a 6d 3d 00 d9 71 bb f6 1c 3f 3e
       -0.0009332895 0.05800832 -0.0036903024 0.18663391
000080 64 49 e6 3d 48 a3 fb 3d 74 fc 18 be 54 68 9d bd
       0.11244467 0.12287003 -0.14940053 -0.07685915
000090 76 44 82 be 09 e3 84 bd 60 f9 72 bc 96 85 4c 3e
       -0.25442857 -0.06488616 -0.014829963 0.19972834
0000a0 c2 29 3c be 76 f1 25 be 57 2b 9f 3e c8 3e 47 3d
       -0.18375304 -0.16205391 0.31087753 0.048643857
0000b0 80 d5 1c 3c cc e2 88 bc 14 79 81 be ed 4a e3 bb
       0.009572387 -0.016709708 -0.25287688 -0.006936422
0000c0 22 2f 89 be fa 7e d7 3d 80 2b 56 3b d8 15 65 be
       -0.26793772 0.10522266 0.0032679737 -0.22371614
0000d0 94 af 10 be 99 72 51 be b5 14 8f 3e 8e 5c 83 3e
       -0.14129478 -0.20453872 0.27945486 0.2565655
0000e0 78 4f 4b bd e0 8b 46 be 38 b7 05 3d 60 40 77 be
       -0.049636334 -0.19389296 0.032645434 -0.24145651
0000f0 36 1f 75 3e 07 ed 39 be ed 91 87 3e 92 c9 6c be
       0.23937687 -0.18156825 0.2647852 -0.23123768
000100 94 63 15 be af 1a e9 3e ea 5a 34 3e f9 5a 6d be
       -0.14588767 0.4552817 0.17612806 -0.23179235
000110 0a 4d 49 3e b4 af cd 3d ea d3 6b 3e 24 63 cf be
       0.19658294 0.10043278 0.23030058 -0.40505326
000120 00 73 00 be 07 44 9b 3e 14 96 14 3e 8b 2d 64 3e
       -0.12543869 0.30325338 0.14510375 0.22282998
000130 70 ea 93 3c 05 ba d9 bc 94 6e 8e bd 77 18 0f 3e
       0.018056124 -0.026577959 -0.06954685 0.13974176
000140 2d 0c 59 3e 8e 0d 01 bf d1 d1 91 3e 62 84 9a be
       0.21196051 -0.5041131 0.2848039 -0.30179125
000150 e8 7d 16 3d a1 33 e5 be 0e f7 c4 bd 34 e4 9d be
       0.036741167 -0.44765952 -0.096174344 -0.30838168
000160 c9 31 35 be ec 61 00 3f e1 ba 0a 40 00 58 62 ba
       -0.17694773 0.50149417 2.1676562 -0.0008634329
000170 78 b6 e6 3d d5 7e 3e be 20 c1 7f bd 7b 8c df 3e
       0.11265272 -0.1860307 -0.062440038 0.43661866
000180 5f 44 02 3e 6e 19 f5 bb c1 f9 de 3d 71 55 1c be
       0.12721394 -0.007479838 0.108874805 -0.15266968
000190 89 90 d3 3c 39 bf 3f 3e 57 30 3f be ce 24 d3 be
       0.025825756 0.1872529 -0.18670784 -0.41239017
0001a0 22 55 ee 3e ee 1e f8 3e 89 8e 1e be 0a 22 44 3e
       0.46549326 0.48461097 -0.1548406 0.1915361
0001b0 3e cf fa bd fa a9 5f bd 30 1a b5 3c 9f 14 0d 3e
       -0.122465596 -0.05460546 0.022107214 0.13777398
0001c0 83 b7 d1 3e 9f ee 76 be 81 c1 99 3e dc 0a 1a be
       0.4096032 -0.24114464 0.30030444 -0.15043205
0001d0 c9 92 82 3e 8a f0 a5 be de 25 42 be 0e 3f 6f 3d
       0.25502613 -0.3241008 -0.18959758 0.058409743
0001e0 0a f0 6d 3e c5 c2 5a 3d 02 f1 01 40 da 3d 6f 3e
       0.23236099 0.053408403 2.030335 0.23363438
0001f0 ec 5e 98 3d 66 56 ff be 54 76 e5 3d f3 17 19 3c
       0.0743998 -0.49870604 0.1120421 0.009344089
000200 83 f0 49 3e d0 1f 59 3e a7 c4 2a be 74 4c 84 3e
       0.19720654 0.21203542 -0.1667658 0.2583958
000210 1f 3c 39 be 38 d6 06 3d 80 db 2a bd e4 91 89 3d
       -0.1808934 0.03291914 -0.041713238 0.067172796
000220 b5 66 b0 be fe 66 6b 3e 9c 30 8b bd 50 2c b1 3d
       -0.3445336 0.22988507 -0.06796381 0.0865103
000230 00 88 9f be 89 a5 e1 bd 82 19 72 be bc 21 14 3d
       -0.31158447 -0.110179015 -0.23642543 0.036164984
000240 27 14 93 3d 4c c2 b5 be 10 be 73 be 60 bd 7a bc
       0.07181578 -0.354998 -0.23802972 -0.01530394
000250 10 1a da 3c c2 2d 0d be 89 98 8c 3e 9d 54 11 be
       0.026623756 -0.13786986 0.27460125 -0.14192434
000260 f1 f3 8a 3e 6e 12 45 3e ac f8 8a bc a8 f8 79 be
       0.27139238 0.19245312 -0.01696428 -0.24411261
000270 96 e4 27 3e 49 f1 93 be eb 9f b2 3e e7 21 33 be
       0.16395792 -0.28895023 0.34887633 -0.17493401
000280 c1 64 8b 3e 72 10 6b 3e 6e 79 63 3e 82 dd 8e be
       0.27225307 0.22955492 0.2221429 -0.27903372
000290 b8 1b 16 3d f8 38 57 bd 0f 2e a7 be c0 ab 11 bd
       0.03664753 -0.052544564 -0.32652327 -0.035564184
0002a0 44 4b 83 3d 9e f6 2d 3e a2 9e 94 be 23 2b 9f be
       0.0641084 0.16988608 -0.29027277 -0.31087598
0002b0 53 78 23 be 50 3a 3e be 39 51 b0 3e 20 d7 4c 3d
       -0.15963869 -0.18576932 0.34436968 0.050009847
0002c0 a0 fe 7c be 3b a5 8f be 86 8b 1b be 48 d0 09 3d
       -0.24706507 -0.28055748 -0.15189943 0.033645898
0002d0 55 18 7c be 00 08 cb 39 2b 66 3b be 1f 5c 9c be
       -0.24618657 0.00038725138 -0.18300693 -0.30539033
0002e0 5f cd 9d 3e 8a b6 08 3e da 06 0f be 09 8f 86 3e
       0.30820748 0.13350883 -0.13967457 0.26281002
0002f0 3e 6a 07 be 6e af 6b be a0 dc a3 be ed 38 84 be
       -0.13224122 -0.2301614 -0.3200426 -0.2582468
000300 e7 be 29 3e 49 22 21 be 7f c5 41 3e c8 13 dc 3e
       0.1657673 -0.15735735 0.18922995 0.42983842
000310 1a 06 a7 be 51 30 94 3e eb a5 8d 3e 07 11 12 3f
       -0.32621843 0.28943112 0.27665648 0.5705723
000320 d0 f4 da bd 1c d3 cf 3e ac b2 a5 bd e1 7d 0a be
       -0.106912255 0.4059075 -0.080907196 -0.13524581
000330 a0 38 32 bc 76 b0 0c 3f 99 85 96 3e ee dd 22 3e
       -0.010877758 0.5495676 0.29398802 0.15904972
000340 c0 21 d3 be 77 f2 7d 3e e6 fa 23 bf ec bd 9a be
       -0.41236687 0.24799524 -0.64054716 -0.30223024
000350 7e 63 6a be 83 b1 ba bd 8d a4 df be a8 0b 52 3e
       -0.22889516 -0.09115889 -0.4368023 0.20512259
000360 d2 0f 9c be 45 2e 83 bd 8d dc 7d 3d 8e ef 28 3e
       -0.3048082 -0.064053096 0.06197791 0.16497633
000370 80 12 2f 3c b8 4d 61 3e 2c 3d ab bd 75 52 d6 be
       0.010685563 0.22002304 -0.08361277 -0.41859785
000380 85 7e a9 bc d3 d8 dd be 15 4f da 3e 25 c3 ef 3e
       -0.020690212 -0.43329486 0.4263846 0.4682857
000390 76 b7 c2 be 0d 3b a5 3e 5f 15 b4 3e ef 07 0d 3f
       -0.38030595 0.32271615 0.35172555 0.5509023
0003a0 42 8f 83 be a4 95 df 3e f2 f2 ea bd 2a 92 3c be
       -0.25695235 0.43668854 -0.114721194 -0.18415132
0003b0 27 15 af 3e 2d 63 96 3e a7 56 87 be 06 8a 43 be
       0.34195825 0.2937254 -0.26433298 -0.1909562
0003c0 0c 72 13 bf 4b 04 01 3f d0 17 2e be db 98 8b be
       -0.57595897 0.50397176 -0.17001271 -0.27265057
0003d0 34 6b a2 3d 63 26 8c 3e c1 b2 d0 bd cd 49 0e 3f
       0.079306036 0.27373037 -0.101903446 0.5558136
0003e0 0c bf 03 be 53 39 20 bf 0d 47 3d be 72 d8 5a be
       -0.12865847 -0.6258747 -0.18484135 -0.2137163
0003f0 57 e0 a4 be 0f d3 06 bd 70 ef ee 3d 3a 16 db be
       -0.32202408 -0.032916125 0.11666763 -0.42790395

sequential/dense_2/MatMul f4 [1, 16]
000000 20 d4 89 be 35 34 15 bf 87 11 00 bf c9 44 25 bf
       -0.2691965 -0.58282787 -0.50026745 -0.6455808
000010 9b 4f 08 3e 00 94 b3 ba 91 f8 39 3f af 0a a6 3f
       0.13311617 -0.0013700724 0.7264491 1.297201
000020 96 20 0c be 55 5e b6 3e 64 7f 8b 3e f9 31 89 3f
       -0.13684306 0.35618845 0.2724563 1.0718375
000030 c4 d9 a5 bd b9 ca 10 bf 27 1f e0 be 19 13 06 3f
       -0.08098176 -0.5655933 -0.43773767 0.5237289

sequential/conv1d/Conv1D f4 [64, 1, 1, 1]
000000 94 68 51 bd d6 89 5b 3e a2 5c 82 be c4 a8 d9 bd
       -0.051125124 0.21439299 -0.25461298 -0.106278926
000010 7b 12 47 3e a3 26 02 be e9 f0 80 be 76 1b 66 3d
       0.19440643 -0.12710051 -0.251838 0.056178533
000020 cd 9a 7e 3e 2c b4 c3 3e 13 29 03 be 7b 27 d8 3e
       0.2486374 0.38223398 -0.12808637 0.4221762
000030 9a 13 99 be 80 ae cc 3e 35 41 e1 3e d8 42 05 3e
       -0.29897767 0.39976883 0.43995062 0.1301378
000040 e4 b0 cc 3d 0b 17 8d 3e c0 3a 7d bc c3 67 3e 3e
       0.09994677 0.27556643 -0.015455902 0.1859427
000050 00 58 cd ba e0 57 47 3e 49 70 75 be 75 e7 39 3e
       -0.0015666485 0.19467115 -0.23968615 0.181547
000060 c1 d5 07 be 93 b2 56 3e a0 97 43 3e 93 e4 ab 3e
       -0.13265134 0.20966558 0.19100809 0.33572826
000070 7c 1e e4 3e 8d 8b ae 3e dc e0 5b 3e e9 01 8c 3e
       0.44554508 0.34090844 0.21472496 0.27345207
000080 f4 73 62 3e 57 75 58 3e c4 f1 bd bd 63 6f 82 3e
       0.22114545 0.21138512 -0.09274629 0.25475606
000090 5b 4e 2f be d2 61 04 be 31 b9 b3 3e df 14 c0 3e
       -0.17119734 -0.1292794 0.35102227 0.37515923
0000a0 6e 30 fa 3c ab 9f fa 3e 81 d1 2e be d6 62 11 be
       0.030540671 0.48949942 -0.17072107 -0.14197859
0000b0 12 cf 02 3f 44 13 f1 3e 30 e7 e3 bc a9 45 8e 3e
       0.51097214 0.4708501 -0.0278202 0.2778752
0000c0 5e 39 83 be 40 b4 eb bc 6e 73 86 be f1 f4 c2 3e
       -0.25629705 -0.028772473 -0.2625994 0.380775
0000d0 b0 b0 d8 bc e0 09 78 bc 76 e2 38 3e ac e1 17 be
       -0.026451439 -0.015139073 0.18055138 -0.1483218
0000e0 f8 7c 8d be 20 b8 79 bd 3a 3a cc bd 38 e9 de bd
       -0.27634406 -0.06096661 -0.09972043 -0.10884327
0000f0 00 b8 17 ba 16 fd db 3d 35 db 52 3e 9c 30 88 bd
       -0.0005787611 0.10741632 0.20591433 -0.066498965
